…
-    \ ... 1. 1. 1.]\n   [1. 1. 1. ... 1. 1. 1.]]\n\n  [[1. 1. 1. ... 1. 1. 1.]\n \
-    \  [1. 1. 1. ... 1. 1. 1.]\n   [1. 1. 1. ... 1. 1. 1.]\n   ...\n   [1. 1. 1. ...\
-    \ 1. 1. 1.]\n   [1. 1. 1. ... 1. 1. 1.]\n   [1. 1. 1. ... 1. 1. 1.]]\n\n  [[1.\
-    \ 1. 1. ... 1. 1. 1.]\n   [1. 1. 1. ... 1. 1. 1.]\n   [1. 1. 1. ... 1. 1. 1.]\n\
-    \   ...\n   [1. 1. 1. ... 1. 1. 1.]\n   [1. 1. 1. ... 1. 1. 1.]\n   [1. 1. 1.\
-    \ ... 1. 1. 1.]]]], (4, 3, 84, 84), float32)"
-policy:
-  desc: null
-  value: "ActorCriticCnnPolicy(\n  (features_extractor): Atari_PPO_Adapted_CNN(\n\
-    \    (network): Sequential(\n      (0): Conv2d(12, 32, kernel_size=(8, 8), stride=(4,\
-    \ 4))\n      (1): ReLU()\n      (2): Conv2d(32, 64, kernel_size=(4, 4), stride=(2,\
-    \ 2))\n      (3): ReLU()\n      (4): Conv2d(64, 64, kernel_size=(3, 3), stride=(1,\
-    \ 1))\n      (5): ReLU()\n      (6): Flatten(start_dim=1, end_dim=-1)\n      (7):\
-    \ Linear(in_features=3136, out_features=256, bias=True)\n    )\n  )\n  (mlp_extractor):\
-    \ MlpExtractor(\n    (shared_net): Sequential()\n    (policy_net): Sequential(\n\
-    \      (0): Linear(in_features=256, out_features=64, bias=True)\n      (1): Tanh()\n\
-    \      (2): Linear(in_features=64, out_features=64, bias=True)\n      (3): Tanh()\n\
-    \    )\n    (value_net): Sequential(\n      (0): Linear(in_features=256, out_features=64,\
-    \ bias=True)\n      (1): Tanh()\n      (2): Linear(in_features=64, out_features=64,\
-    \ bias=True)\n      (3): Tanh()\n    )\n  )\n  (action_net): Linear(in_features=64,\
-    \ out_features=3, bias=True)\n  (value_net): Linear(in_features=64, out_features=1,\
-    \ bias=True)\n)"
-policy_class:
-  desc: null
-  value: <class 'stable_baselines3.common.policies.ActorCriticCnnPolicy'>
-policy_kwargs:
-  desc: null
-  value: '{''features_extractor_class'': <class ''ppo_util.Atari_PPO_Adapted_CNN''>,
-    ''features_extractor_kwargs'': {''features_dim'': 256}}'
-policy_type:
-  desc: null
-  value: CnnPolicy
-rollout_buffer:
…
-    \ ... 1. 1. 1.]\n   [1. 1. 1. ... 1. 1. 1.]]\n\n  [[1. 1. 1. ... 1. 1. 1.]\n \
-    \  [1. 1. 1. ... 1. 1. 1.]\n   [1. 1. 1. ... 1. 1. 1.]\n   ...\n   [1. 1. 1. ...\
-    \ 1. 1. 1.]\n   [1. 1. 1. ... 1. 1. 1.]\n   [1. 1. 1. ... 1. 1. 1.]]\n\n  [[1.\
-    \ 1. 1. ... 1. 1. 1.]\n   [1. 1. 1. ... 1. 1. 1.]\n   [1. 1. 1. ... 1. 1. 1.]\n\
-    \   ...\n   [1. 1. 1. ... 1. 1. 1.]\n   [1. 1. 1. ... 1. 1. 1.]\n   [1. 1. 1.\
-    \ ... 1. 1. 1.]]]], (4, 3, 84, 84), float32)"
-policy:
-  desc: null
-  value: "ActorCriticCnnPolicy(\n  (features_extractor): YunhaoModifiedAtariCNN(\n\
-    \    (network): Sequential(\n      (0): Conv2d(12, 32, kernel_size=(8, 8), stride=(4,\
-    \ 4))\n      (1): ReLU()\n      (2): Conv2d(32, 64, kernel_size=(4, 4), stride=(2,\
-    \ 2))\n      (3): ReLU()\n      (4): Conv2d(64, 64, kernel_size=(3, 3), stride=(1,\
-    \ 1))\n      (5): ReLU()\n      (6): Conv2d(64, 16, kernel_size=(1, 1), stride=(1,\
-    \ 1))\n      (7): ReLU()\n      (8): Flatten(start_dim=1, end_dim=-1)\n      (9):\
-    \ Linear(in_features=784, out_features=256, bias=True)\n    )\n  )\n  (mlp_extractor):\
-    \ MlpExtractor(\n    (shared_net): Sequential()\n    (policy_net): Sequential(\n\
-    \      (0): Linear(in_features=256, out_features=64, bias=True)\n      (1): Tanh()\n\
-    \      (2): Linear(in_features=64, out_features=64, bias=True)\n      (3): Tanh()\n\
-    \    )\n    (value_net): Sequential(\n      (0): Linear(in_features=256, out_features=64,\
-    \ bias=True)\n      (1): Tanh()\n      (2): Linear(in_features=64, out_features=64,\
-    \ bias=True)\n      (3): Tanh()\n    )\n  )\n  (action_net): Linear(in_features=64,\
-    \ out_features=3, bias=True)\n  (value_net): Linear(in_features=64, out_features=1,\
-    \ bias=True)\n)"
-policy_class:
-  desc: null
-  value: <class 'stable_baselines3.common.policies.ActorCriticCnnPolicy'>
-policy_kwargs:
-  desc: null
-  value: '{''features_extractor_class'': <class ''ppo_util.YunhaoModifiedAtariCNN''>,
-    ''features_extractor_kwargs'': {''features_dim'': 256}}'
-policy_type:
-  desc: null
-  value: CnnPolicy
-rollout_buffer:
…
